assets/crop_recommendation_model.tflite (tflite, 44932 bytes, 6 tensors)

sequential/dense_1/BiasAdd/ReadVariableOp f4 [64]
0	0xbd7026d0	-0.058630764
1	0x3dfa6c18	0.122276485
2	0x3e226420	0.15858507
3	0x3d995662	0.07487179
4	0x3e302b24	0.17203957
5	0x3e172388	0.14759648
6	0xbcea6135	-0.028610805
7	0x3db4b729	0.088239975
8	0x3d2f3db9	0.042783473
9	0xbde7f6cf	-0.11326372
10	0xbc61e6c1	-0.013787926
11	0x00000000	0.0
12	0x3d35396a	0.044244207
13	0x3e129f55	0.14318593
14	0x3e48f4f5	0.19624694
15	0x3e16440c	0.14674395
16	0xbb84ae93	-0.004049131
17	0xbcccafe0	-0.024986207
18	0x3d257299	0.040392492
19	0xbd9ec17c	-0.07751748
20	0x3d42e814	0.04758461
21	0x3e0a1c4b	0.13487355
22	0x3e094b35	0.13407595
23	0x3d90d854	0.07072511
24	0xbc6a7a61	-0.014311404
25	0x3e450148	0.1923877
26	0x3b4ed943	0.0031562604
27	0x3e42a3be	0.19007775
28	0x3daac151	0.083376534
29	0x3da702a8	0.081548035
30	0x3b1ecaa5	0.0024229672
31	0xbc941c97	-0.018080039
32	0x3e05e565	0.13075788
33	0xbb719fb2	-0.0036868867
34	0x3e2e494a	0.17020145
35	0x3d215552	0.03938801
36	0x3d99de7d	0.075131394
37	0x3d20dbf9	0.039272282
38	0x3e5c0aba	0.21488467
39	0x3d9a74a6	0.0754178
40	0x3e13b5e3	0.14424853
41	0x3cd3eb73	0.025869107
42	0x3a251be3	0.0006298406
43	0x3d4c2272	0.049837537
44	0x3bf53c15	0.007483969
45	0xbdf82bd2	-0.12117733
46	0x3e61dcf9	0.2205695
47	0xbd5250a1	-0.051346425
48	0x3d3ab2fd	0.045580853
49	0x3d69fa8e	0.057123713
50	0x3d3fbe6b	0.046812456
51	0x3e05ee0e	0.13079092
52	0x3e517a8e	0.20456907
53	0x3db94ac9	0.09047467
54	0x3c822342	0.015885953
55	0x3e215f3e	0.15758988
56	0xbd455ea8	-0.048185974
57	0x3e27d124	0.16388375
58	0x3e360d3f	0.1777849
59	0x3e1ef252	0.15522125
60	0x3de58f9a	0.112090304
61	0x3e49ce47	0.19707595
62	0xbd19873c	-0.037482485
63	0xbda26b7d	-0.07930658

sequential/dense_2/BiasAdd/ReadVariableOp f4 [22]
0	0xbd893a1d	-0.06700537
1	0x3d2b5da4	0.04183735
2	0x3e02368e	0.12716123
3	0xbdd4e820	-0.10395837
4	0xbbb16b02	-0.0054143677
5	0xbd12ed1e	-0.035870664
6	0x3c28f395	0.010311981
7	0xbd65a35d	-0.056064
8	0x3e1bc75d	0.1521277
9	0xbc06ac01	-0.00821972
10	0xbd32025d	-0.043459285
11	0x3ddcd3f0	0.10782611
12	0x3d16caa9	0.036814366
13	0xbd523075	-0.051315743
14	0x3c016661	0.007897944
15	0xbdab1996	-0.083544895
16	0xbdb1f15b	-0.08688613
17	0xb92b037e	-0.00016309132
18	0x3d65644f	0.056003865
19	0x3cccb05f	0.024986444
20	0xbe2300ad	-0.15918227
21	0x3d669150	0.056290925

sequential/dense/BiasAdd/ReadVariableOp f4 [128]
0	0x3eb5839d	0.35451975
1	0x3e6cdebd	0.23131843
2	0x3e36f22f	0.17865823
3	0x3cb9566e	0.02262422
4	0x3d73fd64	0.059567824
5	0x3ed6b7da	0.41937143
6	0x3e2eada9	0.17058434
7	0x3cb78739	0.022403346
8	0x3e68b656	0.22725806
9	0x3e8c047e	0.27347177
10	0x3e6cba9b	0.2311806
11	0x3eaa6e1a	0.33287126
12	0xbcd5f998	-0.026119992
13	0x3eb4eb87	0.35335943
14	0x3e6f4352	0.23365524
15	0x3e157d54	0.1459859
16	0x3e697d3e	0.22801682
17	0x3c97fae4	0.018552251
18	0x3e18ad0b	0.1490976
19	0x3dc0ffd6	0.09423797
20	0xbd71fe45	-0.05908038
21	0x3e2a95ee	0.16658756
22	0xbd01594d	-0.031579304
23	0x3ded2f34	0.11581269
24	0x3e0a891b	0.13528864
25	0x3e331428	0.17488158
26	0x3e46cfac	0.19415158
27	0x3e103e14	0.14086181
28	0x3e427c8f	0.18992828
29	0x3eb64bd7	0.35604736
30	0x3ebeb502	0.37247473
31	0x3df00f1f	0.11721634
32	0x3e26e4f6	0.16298279
33	0x3e44e764	0.19228894
34	0x3e965baf	0.29366824
35	0x3e92dfe0	0.28686428
36	0x3e9024a8	0.28152966
37	0x3d89301e	0.06698631
38	0x3e8f1d18	0.27951884
39	0x3e9b895f	0.30378243
40	0x3ea3146c	0.31851518
41	0x3e276290	0.16346192
42	0x3e1cb744	0.15304285
43	0x3e7da0b7	0.24768339
44	0x3dd0a708	0.10188109
45	0x3e554143	0.20825677
46	0x3e8cf2bb	0.2752894
47	0x3e1f6aea	0.15568128
48	0x3e3c91bd	0.1841497
49	0x3e4fb61a	0.2028431
50	0x3ebca178	0.3684194
51	0x3eb3d03c	0.35119808
52	0x3b08e97c	0.002089112
53	0x3dde9cfc	0.10869786
54	0x3e1fcdf2	0.15605906
55	0x3c1c0822	0.009523423
56	0x3b5f0b5c	0.003403387
57	0x3e7c7ef4	0.24657804
58	0x3e3ea800	0.18618774
59	0x3e1d58cc	0.15365905
60	0x3cad6de6	0.021170568
61	0x3e294949	0.16531862
62	0x3ba59502	0.0050531635
63	0x3e99984f	0.29999015
64	0x3e5751dc	0.2102732
65	0x3dcc3077	0.099701814
66	0x3ec91343	0.39272508
67	0x3e19aa6f	0.15006422
68	0x3e33fbf0	0.17576575
69	0x3e1c024c	0.15235251
70	0x3eabb7d8	0.335387
71	0x3ea52863	0.32257375
72	0x3e9d1a0f	0.30683944
73	0x3ea7ce50	0.3277459
74	0x3dc58e3b	0.09646269
75	0x3e846bfd	0.2586364
76	0x3e92dab0	0.2868247
77	0x3ec66818	0.38751292
78	0x3e74766f	0.23873304
79	0x3e66d058	0.22540414
80	0x3e3d2325	0.18470438
81	0x3e8ae238	0.27125716
82	0x3e6fc110	0.23413491
83	0xbe00cba3	-0.12577681
84	0x3eb69195	0.35657945
85	0x3e3fe2be	0.18738839
86	0x3e4b4589	0.19850744
87	0x3e9f2523	0.3108302
88	0x3e3cb425	0.18428095
89	0x3e915944	0.28388417
90	0x3e3f3434	0.18672258
91	0x3e99230a	0.29909545
92	0x3eac9fa9	0.3371556
93	0x3e371cf5	0.1788214
94	0x3e548b9d	0.20756383
95	0x3c9d9a9c	0.019238763
96	0x3d978a95	0.07399479
97	0x3ea38ae5	0.31941906
98	0x3e16da96	0.14731821
99	0x3e8da5c9	0.27665547
100	0x3eb9cd67	0.36289522
101	0x3dea3d56	0.1143748
102	0x3e6347f0	0.2219541
103	0x3d39f92b	0.04540364
104	0xbd707534	-0.058705524
105	0x3d9a0ef3	0.075223826
106	0x3e8b54ef	0.27213237
107	0x3dc4b798	0.0960533
108	0x3e364e7e	0.1780338
109	0x3e1494fb	0.14509957
110	0x3e894e69	0.26817635
111	0x3cccecf1	0.025015326
112	0x3e075f19	0.1321987
113	0x3e03fab6	0.12888607
114	0x3e25e5da	0.16200963
115	0xbe1309f9	-0.14359273
116	0xbc1e9919	-0.009680056
117	0x3e497c37	0.1967629
118	0x3dd61b04	0.104543716
119	0x3e5ca259	0.21546306
120	0xbcd9e155	-0.026596704
121	0x3dd46e3c	0.10372588
122	0xbe2150f9	-0.15753545
123	0x3e1eb869	0.15500034
124	0x3e69122d	0.2276084
125	0x3d4e7b04	0.050410286
126	0x3d957b22	0.07298876
127	0x3e66e028	0.22546446

sequential/dense/MatMul f4 [128, 7]
0	0xbe29513a	-0.16534892
1	0xbead963c	-0.33903682
2	0xbd3ea863	-0.046547305
3	0xbe591da9	-0.2120272
4	0x3eb8035c	0.35940063
5	0x3d60ee91	0.054915015
6	0x3db054fb	0.08609959
7	0x3e807285	0.2508737
8	0xbdb4b224	-0.0882304
9	0x3d2237e4	0.039604083
10	0xbe8c230e	-0.27370495
11	0x3d568622	0.052374013
12	0xbec4d3bd	-0.38442793
13	0xbecb7bf3	-0.39743003
14	0x3c82b45b	0.01595514
15	0x3dbafee7	0.0913065
16	0x3dbf342b	0.09336122
17	0x3e687ed4	0.22704631
18	0xbe327714	-0.17428237
19	0x3ec16ee6	0.3777992
20	0x3dc34536	0.09534685
21	0x3ed331a3	0.41248807
22	0xbe962475	-0.2932469
23	0x3dfb5597	0.12272184
24	0xbd5ce8c7	-0.05393293
25	0x3d6d59aa	0.05794684
26	0xba514cbb	-0.0007984151
27	0x3e9104ff	0.28324124
28	0x3e4109fc	0.18851465
29	0x3dc768a8	0.097367585
30	0xbcc6a840	-0.02425015
31	0xbdb67dd1	-0.08910716
32	0xbe625580	-0.22102928
33	0xbea9d38e	-0.33169216
34	0xbedb9719	-0.42888716
35	0xbdc025e9	-0.09382231
36	0x3e92bb5e	0.28658575
37	0x3ed048f3	0.40680656
38	0xbb4ed91e	-0.0031562517
39	0x3e9cf69d	0.306569
40	0x3de9bf45	0.11413435
41	0x3e1f2882	0.15542796
42	0xbee1fabb	-0.44136605
43	0x3e0e8b09	0.13920225
44	0xbd85037c	-0.06494805
45	0x3daa342a	0.08310731
46	0x3e92d0d2	0.28674942
47	0xbe9abcc6	-0.30222148
48	0xbed1fb70	-0.41012144
49	0xbe08afcf	-0.13348316
50	0x3e9cbf80	0.30614853
51	0xbe9e7435	-0.30948034
52	0xbbe2de3d	-0.0069234655
53	0x3e9a3862	0.30121142
54	0xbeaaa2df	-0.33327386
55	0x3ee5a1e7	0.44850084
56	0xbeac9e5e	-0.33714575
57	0x3d2428cb	0.040077966
58	0xbdeb9f83	-0.11505034
59	0x3d11e199	0.035615537
60	0xbdc25ae8	-0.09489995
61	0x3d3cffa0	0.04614222
62	0xbec2b2cb	-0.38027033
63	0x3e68cd5a	0.22734585
64	0xbeab0897	-0.3340499
65	0xbe91cf0f	-0.28478286
66	0x3e138f62	0.14410165
67	0xbece78cd	-0.4032654
68	0x3e82068d	0.25395623
69	0x3d6d76cb	0.057974618
70	0xbea371a5	-0.3192264
71	0xbdaa1e0e	-0.08306514
72	0x3d8400be	0.06445454
73	0x3d231b4c	0.039820954
74	0xbf1bbb50	-0.6083269
75	0x3d1fea68	0.039041907
76	0x3e756321	0.23963596
77	0x3e6b8ba9	0.23002495
78	0xbec5d3b1	-0.3863807
79	0xbe8850b1	-0.26624063
80	0x3d4d5b0e	0.050135665
81	0xbe6b3a91	-0.2297156
82	0x3d6e2541	0.058140997
83	0xbdcda8a5	-0.10041932
84	0xbe76cd15	-0.2410167
85	0x3e75185b	0.23935072
86	0x3e889b09	0.26680782
87	0x3d11f22f	0.035631355
88	0xbe6ec2df	-0.23316525
89	0x3d2fd3b0	0.04292649
90	0xbef9e46f	-0.48807094
91	0x3e988050	0.29785395
92	0x3d886ba3	0.06661155
93	0xbeeb56f8	-0.4596479
94	0x3d142241	0.03616548
95	0xbe9131f7	-0.28358433
96	0x3de50f2e	0.11184536
97	0xbe298d79	-0.16557874
98	0x3e0785db	0.13234656
99	0x3ded409c	0.11584589
100	0xbdd1341f	-0.102150194
101	0x3ea6fe9b	0.32616124
102	0x3ec1a710	0.3782277
103	0x3d173730	0.036917865
104	0xbdddc813	-0.10829177
105	0xbd8d32b1	-0.06894434
106	0x3eb1df66	0.34740752
107	0x3e70cc3c	0.23515409
108	0x3d11cc92	0.035595484
109	0xbe6a133f	-0.22858904
110	0x3e83bd14	0.25730193
111	0xbea84c12	-0.32870537
112	0x3c940535	0.01806889
113	0x3da7ce71	0.081936724
114	0xbdb04675	-0.086071886
115	0x3edbfca8	0.429662
116	0x3eb3309c	0.34998024
117	0x3e3bd214	0.18341857
118	0x3d824886	0.06361489
119	0xbe67c3d9	-0.22633304
120	0xbe0ee704	-0.13955313
121	0x3e87fd99	0.26560667
122	0x3e66fe8d	0.22558041
123	0xbf07439b	-0.5283753
124	0xbdf7ed27	-0.1210578
125	0xbe6fe421	-0.23426868
126	0x3e54f64e	0.20797083
127	0xbe7cb20d	-0.24677296
128	0x3eab12f7	0.33412907
129	0x3dd8d257	0.10586994
130	0x3f19e637	0.60116905
131	0x3d1b5d8f	0.03793102
132	0x3eac1b39	0.3361452
133	0xbd6024a8	-0.054722458
134	0x3d372c69	0.044720087
135	0xbdee7a3a	-0.116444066
136	0xbe46c672	-0.19411638
137	0x3e07e980	0.13272667
138	0xbe9a9284	-0.30189908
139	0x3e92cd10	0.28672075
140	0xbdee621e	-0.11639808
141	0x3e08186a	0.13290563
142	0x3eb6d6cc	0.35710752
143	0x3d56c713	0.052435946
144	0xbe0fa773	-0.1402872
145	0xbe346f13	-0.17620496
146	0xbd93b79a	-0.072127536
147	0x3ea0d1d3	0.31410083
148	0xbea3e8d4	-0.3201357
149	0xbeca1eba	-0.39476568
150	0x3e353051	0.17694212
151	0x3e5e6004	0.21716315
152	0x3e39049e	0.18068168
153	0xbef5f44f	-0.48037955
154	0x3d614955	0.055001575
155	0x3ecfc857	0.40582535
156	0x3f00d9d2	0.5033237
157	0xbd0c3fb4	-0.03424044
158	0xbd8d49e2	-0.06898858
159	0xbd5ee640	-0.054418802
160	0xbc5c0aaf	-0.013430282
161	0xbe16ae1a	-0.14714852
162	0x3d51b99b	0.051202398
163	0x3e71aeed	0.23601885
164	0xbc7673ee	-0.015042288
165	0x3f1ba44c	0.6079757
166	0x3d4c0c6a	0.049816526
167	0x3eee77c1	0.4657574
168	0xbe117bd5	-0.14207394
169	0xbee1395e	-0.4398908
170	0x3e9ee27f	0.31032178
171	0x3ed76539	0.42069414
172	0x3eedf990	0.46479464
173	0x3cafe4a7	0.021471335
174	0xbe4950ae	-0.19659683
175	0x3de5d315	0.11221901
176	0x3d98c323	0.074590944
177	0x3e8b314e	0.27186054
178	0x3cf8d4d3	0.03037492
179	0x3f062851	0.5240527
180	0xbe1a7f88	-0.15087712
181	0x3ed14f31	0.4088073
182	0x3cbea96a	0.023274142
183	0xbe29d270	-0.16584182
184	0x3e52d1da	0.20587865
185	0x3e8d2efc	0.2757491
186	0xbea525b5	-0.3225533
187	0x3ef8a0bf	0.4856014
188	0x3e21c026	0.15795955
189	0x3e8694a6	0.26285285
190	0x3e59efa8	0.21282828
191	0x3e1c029b	0.15235369
192	0x3e9716bb	0.2950953
193	0x3e6629e0	0.22476912
194	0x3b034414	0.0020029591
195	0xbed4dc3f	-0.41574284
196	0x3e548051	0.20752074
197	0x3e62b211	0.2213824
198	0xbbb80648	-0.005615983
199	0x3eb4cb4b	0.3531135
200	0xbe822636	-0.25419778
201	0xbe215bb1	-0.15757634
202	0xbd87dfbd	-0.066344716
203	0x3d96a8e1	0.0735643
204	0xbe027e53	-0.12743501
205	0xbdb8c6cb	-0.09022292
206	0xbe5e5875	-0.21713431
207	0x3eac8a74	0.3369938
208	0x3da338e3	0.07969835
209	0xbe7e3eb4	-0.24828607
210	0xbcd9334c	-0.026513718
211	0xbebb8584	-0.36625302
212	0x3f045e11	0.51706034
213	0xbe0c65c3	-0.13710694
214	0xbe34e181	-0.17664148
215	0xbe139350	-0.14411664
216	0xbd954691	-0.0728885
217	0x3ec85b8b	0.39132342
218	0xbe9de922	-0.3084193
219	0x3dbc9616	0.09208314
220	0x3e75aee5	0.23992498
221	0x3e1e2edf	0.15447567
222	0xbde82a1a	-0.11336155
223	0x3e340a06	0.17581949
224	0x3e7ce45c	0.24696487
225	0x3e00a2a2	0.1256204
226	0xbf2a7788	-0.6658864
227	0x3de1043b	0.10987135
228	0x3ee71a19	0.45137098
229	0x3ac677b0	0.0015141871
230	0xbed6dc47	-0.41964933
231	0xbecf49c7	-0.40485975
232	0x3e4967a3	0.1966844
233	0xbe44b6f4	-0.19210416
234	0x3dc27c86	0.09496407
235	0xbe9153a5	-0.28384128
236	0x3cb59a76	0.02216838
237	0xbed05ad2	-0.4069429
238	0x3e9e5f4e	0.30932087
239	0xbeb9055a	-0.36136895
240	0xbf10b88a	-0.56531584
241	0x3e236eb6	0.15960202
242	0x3d15fa45	0.03661563
243	0xbdefc120	-0.117067575
244	0xbe69008b	-0.22754113
245	0x3e487bff	0.19578551
246	0xbecc67d4	-0.39922965
247	0x3de79e5c	0.113095015
248	0xbda06f5c	-0.0783374
249	0xbf0dfecf	-0.5546693
250	0x3db74ace	0.08949815
251	0x3e3e5d00	0.18590164
252	0x3b651c46	0.003495948
253	0x3f0656e6	0.52476346
254	0x3e7354db	0.23762839
255	0x3e21c338	0.15797126

sequential/dense_1/MatMul f4 [64, 128]
0	0x3d9a934a	0.075476244
1	0x3e5df744	0.21676356
2	0x3e4809e6	0.19535026
3	0x3e1ae8d8	0.15127885
4	0x3e2b4aca	0.16727749
5	0xbe1188bd	-0.14212318
6	0x3ea3e63a	0.32011586
7	0x3e8f4ec2	0.27989775
8	0x3df184c1	0.11792899
9	0x3e287562	0.16451028
10	0xbe2626e8	-0.16225779
11	0x3db70ada	0.08937617
12	0x3d8f5a45	0.069996394
13	0xbe858b84	-0.26083004
14	0x3dc1489d	0.09437678
15	0x3e423147	0.1896411
16	0xbd7d70ff	-0.06187534
17	0x3e47e458	0.195207
18	0x3c19e6a1	0.009393365
19	0x3e24292a	0.16031328
20	0xbcca8494	-0.024721421
21	0x3d498ef3	0.049208593
22	0xbc3e6968	-0.0116218105
23	0x3e48891b	0.19583552
24	0x3ea74470	0.326694
25	0x3c8d7068	0.017265514
26	0x3e4b6ee1	0.19866516
27	0xbd5eff4b	-0.054442685
28	0xbdeb7150	-0.11496222
29	0x3d6a333d	0.05717777
30	0x3e0e6177	0.13904367
31	0x3e64f391	0.22358538
32	0xbd67fe2b	-0.056638878
33	0x3cebb962	0.02877492
34	0x3d12dd3d	0.03585552
35	0xbd86c73a	-0.06580968
36	0x3cc24469	0.023714261
37	0x3e464868	0.19363558
38	0x3e8050e6	0.2506172
39	0xbe41b7fd	-0.18917842
40	0x3dbb8f14	0.09158149
41	0x3eb29261	0.34877303
42	0x3ebc0157	0.36719772
43	0xbd24f518	-0.040272802
44	0x3dcc5357	0.09976833
45	0x3e2199fa	0.15781394
46	0xbe4855b7	-0.19563948
47	0x3d0aaa56	0.03385385
48	0x3e81ed52	0.25376374
49	0x3e9a22e6	0.3010475
50	0xbe3e51ff	-0.18585967
51	0xbe4cddb7	-0.20006453
52	0x3e8e32fb	0.2777327
53	0xb857b668	-5.1429874e-05
54	0xbd973742	-0.073835865
55	0x3c9df19d	0.01928025
56	0x3e833201	0.25624087
57	0x3cacedc5	0.021109471
58	0xbe2195b9	-0.15779771
59	0x3eb139c2	0.34614378
60	0x3e427df3	0.18993358
61	0x3eb23bf0	0.34811354
62	0x3cf862c1	0.030320527
63	0xbe0b99bd	-0.13632865
64	0x3df07c5d	0.117424704
65	0x3e671a30	0.22568583
66	0xbeae4e1d	-0.3404397
67	0x3e14c410	0.14527917
68	0x3d709e34	0.058744624
69	0x3dd8e655	0.10590807
70	0xbe35d080	-0.17755318
71	0xbe186d60	-0.14885473
72	0x3e449f49	0.19201387
73	0x3ea74010	0.32666063
74	0x3c9102fa	0.017701615
75	0x3d15594f	0.036462124
76	0x3dd889dc	0.105731696
77	0xbe5f3008	-0.21795666
78	0x3e7b7d75	0.24559577
79	0x3e7643d2	0.24049309
80	0x3dc1b6e3	0.09458711
81	0xbde01419	-0.10941333
82	0x3c374ad0	0.01118727
83	0x3e304026	0.1721197
84	0xbd3b3d8c	-0.045712993
85	0xbe6d6574	-0.23183233
86	0x3b8f168e	0.0043667024
87	0x3e883b81	0.26607898
88	0xbe8c8552	-0.27445465
89	0xbd981dcf	-0.074275605
90	0xbd81885e	-0.06324838
91	0x3d87bc9a	0.0662777
92	0xbd497839	-0.04918692
93	0x3d88be6a	0.066769436
94	0x3cbf2f69	0.023338037
95	0x3d8a8a27	0.06764632
96	0x3e550e70	0.20806289
97	0xbee836b9	-0.4535425
98	0xbc9f253a	-0.01942693
99	0x3e2a773a	0.16647044
100	0xbe286183	-0.16443448
101	0xbdd39552	-0.10331215
102	0x3e846caf	0.2586417
103	0x3e9049ba	0.2818125
104	0xba9601c4	-0.0011444618
105	0xbba04e2a	-0.0048921304
106	0xbe9f2a21	-0.3108683
107	0x3c05d3c2	0.008168163
108	0x3e041320	0.1289792
109	0xbe4285cf	-0.18996356
110	0x3942c280	0.00018573739
111	0xbc3e0bbb	-0.011599476
112	0x3e11f80d	0.1425478
113	0x3d8eb7f1	0.06968678
114	0x3d6e003c	0.058105692
115	0x3e7341a8	0.23755515
116	0x3e07e0c8	0.13269341
117	0x3dda7bb5	0.106681265
118	0xbdeea5f8	-0.1165275
119	0x3e0ec5b8	0.13942611
120	0xbe4ff6e7	-0.2030903
121	0x3ee13ad2	0.4399019
122	0x3e6875b4	0.2270115
123	0x3e4e3066	0.2013565
124	0x3da9d44e	0.08292447
125	0xbc9c4518	-0.019075915
126	0x3eaa4c16	0.33261174
127	0xbdc48748	-0.09596115
128	0x3e7bc5cc	0.24587172
129	0xbbf169f9	-0.0073673693
130	0xbdb25ab2	-0.08708705
131	0xb63ffb94	-2.8607656e-06
132	0xbdb22859	-0.08699102
133	0xbd989099	-0.07449455
134	0xbe049854	-0.12948734
135	0x3d86df3c	0.06585547
136	0xbb9478e3	-0.0045310124
137	0xbcc42007	-0.023941053
138	0xbe8a289a	-0.26984102
139	0x3be1c00c	0.006889349
140	0xbe854d38	-0.26035476
141	0x3e18dbe5	0.14927633
142	0xbd3a46ce	-0.04547768
143	0xbdeea402	-0.11652376
144	0xbd0c9fc3	-0.03433205
145	0xbe73c8ed	-0.23807116
146	0xbd568dbf	-0.052381273
147	0x3e3fcd6e	0.18730709
148	0xbe816e79	-0.25279596
149	0x3db88049	0.090088435
150	0xbe0a2a40	-0.1349268
151	0x3dfc94c2	0.12333061
152	0xbe38ed12	-0.18059185
153	0xbe076149	-0.13220705
154	0x3ce4dc51	0.027937086
155	0xbdefa369	-0.1170109
156	0x3c99ddaf	0.018782465
157	0x3e62220f	0.22083305
158	0xbe43c71a	-0.1911892
159	0xbd0d8d04	-0.03455831
160	0x3cc19f51	0.023635538
161	0xbdb972f4	-0.09055129
162	0x3e2b4f88	0.16729558
163	0xbe03f345	-0.12885769
164	0x3d58770e	0.052847914
165	0xbd95986b	-0.07304462
166	0x3d60f3f8	0.054920167
167	0x3e5954d4	0.21223766
168	0xbd9e5e36	-0.07732813
169	0x3e3ddb24	0.18540627
170	0x3d4801f4	0.048829988
171	0x3e83e06d	0.2575716
172	0xbe282e68	-0.16423953
173	0x3dbe3eba	0.09289308
174	0x3cfbe511	0.030748876
175	0xbe5aeed8	-0.21380174
176	0xbe19fd0c	-0.15037936
177	0xbda84ac5	-0.08217386
178	0x3e89a4a2	0.26883417
179	0x3e067c8e	0.13133451
180	0xbd40f637	-0.04710981
181	0x3c14712d	0.009060186
182	0xbe89d099	-0.2691696
183	0x3cd1ec14	0.025625266
184	0xbea0bf92	-0.31396157
185	0xbe2dee95	-0.16985543
186	0x3eb4ce61	0.35313705
187	0x3ce69a68	0.028149799
188	0xbc9e91c9	-0.019356625
189	0x3dc4c9e9	0.09608824
190	0x3d5673fc	0.052356705
191	0x3edf080d	0.4356083
192	0x3ec7a72a	0.38994724
193	0x3e32f283	0.17475323
194	0xbe2d160b	-0.1690294
195	0xbea967f3	-0.3308712
196	0x3e954ef3	0.29161796
197	0x3d7d18d0	0.06179124
198	0x3eaeb7b5	0.34124532
199	0xbcd4d6e6	-0.025981378
200	0x3e7819a7	0.24228536
201	0xbead547b	-0.33853516
202	0xbda92866	-0.082596585
203	0x3e17a51f	0.14809082
204	0xbc82881b	-0.01593404
205	0x3df44ae3	0.11928346
206	0xbdf661c2	-0.120303646
207	0x3dc8c2e8	0.098028004
208	0x3e9983f9	0.299835
209	0x3e8db7a7	0.27679178
210	0xbd93698f	-0.07197868
211	0xbe40fc5f	-0.18846272
212	0x3dfefda5	0.124507226
213	0xbe51cb41	-0.20487691
214	0x3e210df1	0.15727974
215	0xbe3addff	-0.18248747
216	0x3ebf76c8	0.3739531
217	0x3e3c5f13	0.18395643
218	0x3df6c09d	0.12048457
219	0x3e17d75a	0.14828244
220	0xbe33155c	-0.17488617
221	0xbe579a0e	-0.21054861
222	0xbd85f911	-0.06541646
223	0x3d6c0d81	0.057630066
224	0x3d764cfa	0.060132004
225	0x3ecaac15	0.39584413
226	0x3da9f6be	0.082990155
227	0x3e723eaa	0.23656717
228	0x3d4db7f3	0.050224256
229	0x3e6b25d4	0.22963649
230	0xbe807810	-0.250916
231	0xbdfd9e9d	-0.12383769
232	0x3e52ec2c	0.20597905
233	0x3d9146dd	0.07093594
234	0x3e382d91	0.17986132
235	0xbe4353fe	-0.19075009
236	0xbd0bc866	-0.03412666
237	0xbcc134b4	-0.023584701
238	0xbcbda07d	-0.023147816
239	0x3d88c50d	0.066782095
240	0xbd076987	-0.033059623
241	0x3e9cc5c9	0.30619648
242	0x3e6fdbc3	0.23423676
243	0x3df20cc4	0.11818841
244	0x3e33c137	0.17554174
245	0x3e2f05da	0.17092076
246	0x3d9aa7c2	0.075515285
247	0x3cc72145	0.024307856
248	0xbde1a48c	-0.11017713
249	0x3d35b7f1	0.044364873
250	0x3dd7ad6a	0.10531123
251	0xbd27cae5	-0.04096498
252	0x3e00d414	0.12580901
253	0xbdd5bc20	-0.104362726
254	0xbe14e01c	-0.14538616
255	0x3e9ea9c8	0.30988908

sequential/dense_2/MatMul f4 [22, 64]
0	0xbd075e68	-0.033049017
1	0xbe9c49e0	-0.30525112
2	0xbec8eba7	-0.39242288
3	0xbefe199c	-0.49628913
4	0xbeb7080d	-0.3574833
5	0xbe28ab80	-0.16471672
6	0x3d55384d	0.052055646
7	0xbf070850	-0.5274706
8	0xbddcdba8	-0.107840836
9	0x3e2f9c93	0.17149572
10	0x3d8943a0	0.067023516
11	0xbca75180	-0.020424604
12	0xbd734ef5	-0.05940147
13	0x3d94471d	0.07240126
14	0xbea27289	-0.31728008
15	0x3e31f0aa	0.17376962
16	0x3c4686e8	0.012117125
17	0xbed216e9	-0.41033104
18	0x3e806d2c	0.25083292
19	0x3e50af1d	0.203793
20	0xbe1ff640	-0.1562128
21	0x3c4d3481	0.012524725
22	0xbee845ef	-0.45365855
23	0x3e6119cf	0.21982501
24	0xbc80ee93	-0.015738761
25	0xbeaf9937	-0.3429658
26	0x3e323856	0.17404303
27	0xbe3e2d28	-0.18571913
28	0xbefac69a	-0.48979646
29	0x3cf172bc	0.029473655
30	0x3cff27ab	0.031146845
31	0xbe37bf85	-0.17944153
32	0xbe339cf3	-0.1754034
33	0x3e594da4	0.21221024
34	0x3e315fc6	0.17321691
35	0xbea85933	-0.32880554
36	0x3e3072f3	0.1723135
37	0x3c52f9a3	0.012876901
38	0xbd8ec562	-0.069712415
39	0xbeb00c2f	-0.34384295
40	0xbe044775	-0.12917884
41	0xbec22d3e	-0.37925142
42	0xbd1345c7	-0.035955217
43	0x3ddca508	0.10773665
44	0xbe9a2be2	-0.30111605
45	0x3e87e966	0.26545256
46	0x3e8c58b9	0.2741144
47	0xbe64c4d6	-0.22340712
48	0xbdfd6a90	-0.12373841
49	0xbe13f266	-0.14447936
50	0x3e937664	0.28801262
51	0x3e26bffd	0.16284175
52	0xbefc752d	-0.49308148
53	0x3ebb44a2	0.365758
54	0xbdc44691	-0.09583772
55	0x3e940530	0.28910208
56	0xbe35bce8	-0.17747843
57	0xbe35ca74	-0.17753011
58	0xbf01184c	-0.504277
59	0xbe7af942	-0.24509147
60	0xbcaf40b1	-0.021393152
61	0xbe66546f	-0.22493146
62	0xbe245267	-0.16047059
63	0x3e4b7e42	0.19872382
64	0xbed10e34	-0.4083115
65	0xbe526fd5	-0.20550473
66	0x3ec0c127	0.37647364
67	0x3d2d0bf6	0.042247735
68	0xbd956093	-0.07293811
69	0xbef3fab6	-0.47652215
70	0x3dcec567	0.10096245
71	0xbe330a03	-0.17484288
72	0xbedad13a	-0.42737752
73	0x3e0bfdd9	0.13671054
74	0xbe334293	-0.17505865
75	0xbd81db3e	-0.06340645
76	0x3ee2b039	0.44275072
77	0x3d9e9104	0.07742503
78	0x3ea9882c	0.33111703
79	0xbebc76d6	-0.36809415
80	0xbeb83500	-0.35977936
81	0x3e7b97c3	0.24569611
82	0xbeaf8d5b	-0.34287533
83	0x3da87acb	0.08226546
84	0xbeea51ea	-0.4576562
85	0xbe8c79cd	-0.27436677
86	0xbe6e33b8	-0.23261917
87	0xbefde637	-0.49589702
88	0x3ada876c	0.0016672439
89	0xbeeecbc5	-0.4663984
90	0xbe39cc33	-0.18144302
91	0x3e502cce	0.20329592
92	0x3d2f0b98	0.042735666
93	0x3e419fe9	0.18908657
94	0xbe1f6882	-0.1556721
95	0xbb8433c2	-0.0040344903
96	0xbea98770	-0.33111143
97	0x3d3cbf2b	0.04608075
98	0x3e820209	0.25392178
99	0xbe8fde33	-0.28099212
100	0xbec31604	-0.38102734
101	0xbccc0b64	-0.024907775
102	0xbe9b37de	-0.3031606
103	0x3e934a31	0.2876754
104	0xbe2aa6f2	-0.16665247
105	0xbeac2a33	-0.33625945
106	0x3d6d989f	0.05800688
107	0x3ec1dab1	0.3786216
108	0x3e4f2073	0.20227222
109	0xbe855b0e	-0.26046032
110	0xbca4de73	-0.020125603
111	0xbedf9dba	-0.43675023
112	0xbdf46da8	-0.11934978
113	0xbec1febe	-0.37889665
114	0xbd54fb86	-0.051997684
115	0xbdecb13d	-0.11557243
116	0xbf0116a0	-0.5042515
117	0x3d8d8898	0.06910819
118	0xbce14666	-0.027499389
119	0xbdc3d545	-0.09562162
120	0x3e5bb231	0.21454693
121	0x3ea658f0	0.3248973
122	0x3cc94b3f	0.024572013
123	0x3ab7f418	0.0014034538
124	0x3eb22775	0.34795728
125	0x3d95a9cd	0.073077776
126	0xbee07274	-0.4383732
127	0xbe736891	-0.23770358
128	0xbec612ab	-0.38686118
129	0x3ea68293	0.32521495
130	0x3e6cd739	0.23128976
131	0xbc836c84	-0.016042955
132	0x3eacebfc	0.33773792
133	0xbe519848	-0.20468247
134	0xbdf54ab9	-0.11977143
135	0xbedd146c	-0.43179643
136	0xbee90b71	-0.45516542
137	0xbdf289ee	-0.11842714
138	0xbf1daaff	-0.61589044
139	0xbdc9e4b4	-0.09858075
140	0xbe87f5e5	-0.2655479
141	0xbd56f990	-0.052484095
142	0x3e847fe4	0.25878823
143	0xbe261d25	-0.16222055
144	0x3d9a2380	0.07526302
145	0xbf12b1ac	-0.57302356
146	0xbe6a5160	-0.22882605
147	0x3dfd4958	0.12367505
148	0xbf372479	-0.7154003
149	0x3ed7c040	0.42138863
150	0x3e996e45	0.2996694
151	0x3df1e510	0.11811268
152	0xbe82d1bf	-0.2555065
153	0x3defcc81	0.11708928
154	0xbf19df04	-0.6010592
155	0x3e759008	0.23980725
156	0xbe0c4b95	-0.13700707
157	0x3e404521	0.1877637
158	0xbe03555b	-0.1282553
159	0xbdc5d3b5	-0.096595205
160	0xbefec94d	-0.49762955
161	0xbed51eba	-0.41625005
162	0x3e251276	0.16120324
163	0xbc3d4fa7	-0.011554635
164	0xbe0d72e1	-0.13813354
165	0x3e083d33	0.13304596
166	0x3d2f1a71	0.042749826
167	0x3d85f65e	0.065411314
168	0x3d47e06e	0.048798017
169	0xbe4eb977	-0.20187937
170	0x3e0f2376	0.13978371
171	0xbe8a6214	-0.27027953
172	0xbefec224	-0.49757493
173	0xbebd73f9	-0.37002543
174	0xbeb50bd0	-0.35360575
175	0x3c411c8b	0.01178659
176	0x3d8334ae	0.06406532
177	0xbe96dcab	-0.2946523
178	0x3b606196	0.0034237853
179	0x3e4db7bd	0.20089622
180	0x3d76c747	0.06024864
181	0xbea637e5	-0.3246452
182	0x3a74afc6	0.00093340536
183	0xbdd4c50b	-0.103891455
184	0xbf1980e0	-0.5996227
185	0x3e4b73fb	0.19868462
186	0x3eaf54ff	0.34244534
187	0x3deccf3e	0.11562966
188	0xbe04e31d	-0.12977262
189	0x3d9f8e23	0.07790782
190	0xbe1ffd52	-0.15623978
191	0xbd930896	-0.07179372
192	0x3d5becb8	0.05369255
193	0xbe5b6c5f	-0.21428059
194	0xbdc496a6	-0.095990464
195	0xbe9cd053	-0.3062769
196	0xbecf9419	-0.40542677
197	0xbdca3cb5	-0.0987486
198	0x3b44269c	0.002993024
199	0x3e3ea0ef	0.18616079
200	0xbcb41830	-0.02198419
201	0xbf00f2e7	-0.5037064
202	0x3e4623ce	0.19349596
203	0x3ced5e70	0.028975695
204	0xbec7d1f8	-0.3902738
205	0xbed24f73	-0.4107624
206	0x3c032782	0.008005025
207	0xbe18c320	-0.14918184
208	0x3dc8fad2	0.09813465
209	0x3e062108	0.13098538
210	0xbeadb3c9	-0.33926228
211	0xbe6c6c96	-0.23088297
212	0x3daa38a8	0.083115876
213	0x3e26a4a2	0.1627374
214	0xbc86f83a	-0.016475786
215	0x3d731ab9	0.059351657
216	0xbe42a1ca	-0.1900703
217	0xbf1068f4	-0.56410146
218	0xbe6abe44	-0.22924143
219	0x3d98e227	0.0746501
220	0x3c3991ea	0.0113262925
221	0x3e6bde8f	0.23034118
222	0x3e850ee7	0.25987932
223	0xbe7d829a	-0.24756852
224	0xbe901a87	-0.2814524
225	0xbebcb634	-0.3685776
226	0xbe5659cc	-0.20932692
227	0xbe8092ab	-0.251119
228	0xbe3ba2f4	-0.1832388
229	0x3e3c39a7	0.18381368
230	0xbe0c1a1f	-0.1368184
231	0xbe1a7248	-0.15082657
232	0xbc6db8e9	-0.014509418
233	0xbecc1e7a	-0.39867002
234	0xbe47a845	-0.19497783
235	0x3e2eece1	0.1708255
236	0x3cdce938	0.026966676
237	0x3e58210b	0.21106355
238	0xbd44d89d	-0.04805814
239	0x3e718bd0	0.2358849
240	0xbc5ef960	-0.01360926
241	0xbd353ddf	-0.044248458
242	0x3e1ec14d	0.15503426
243	0x3e322b36	0.17399296
244	0xbc31308f	-0.0108148
245	0xbf0ca73e	-0.5494269
246	0x3e3df277	0.18549524
247	0xbeb06a00	-0.34455872
248	0x3e82f890	0.25580263
249	0x3cf841e8	0.030304864
250	0x3e49c717	0.19704853
251	0xbe8795f6	-0.264816
252	0x3e130cf2	0.14360407
253	0xbeb72903	-0.35773477
254	0x3e26c744	0.16286951
255	0x3e46b8df	0.1940646
